DiseasePrediction_DeepLearning.tflite (tflite, 59008 bytes, 6 tensors)

arith.constant f2 [128, 133]
000000 b1 b3 af 34 46 b0 70 33 59 2d 6e 2f 89 aa 70 33
       -0.2404 0.2927 -0.1335 0.2324 0.08356 0.1161 -0.05106 0.2324
000010 7f ae cd 30 9d 31 23 35 1e 31 3b 2d 05 ad 03 30
       -0.1015 0.15 0.1754 0.321 0.1599 0.0817 -0.0784 0.1254
000020 79 af e0 2d d7 b3 6d b1 36 2c 55 31 99 31 11 31
       -0.11676 0.0918 -0.245 -0.1696 0.0658 0.1666 0.1749 0.1583
000030 42 31 4f 29 4b a7 4c a4 52 b1 04 33 e9 2f 09 34
       0.1643 0.04147 -0.02849 -0.01678 -0.1663 0.2192 0.1236 0.2522
000040 4f ae 2a 1d a0 ac 36 32 26 34 81 34 1d 2a eb 31
       -0.0986 0.005043 -0.07227 0.1941 0.2593 0.2815 0.04776 0.1849
000050 3b 31 8c 33 93 b0 17 33 49 af e3 33 e9 28 39 ac
       0.1635 0.2358 -0.143 0.2216 -0.11383 0.2465 0.03836 -0.066
000060 18 2f b8 b3 7c 98 2c b0 5f 34 3e 30 4c 33 44 af
       0.11084 -0.2412 -0.00219 -0.1304 0.2732 0.1326 0.228 -0.1135
000070 15 b1 84 25 ff ac 17 30 03 ac 39 2b a0 a5 11 34
       -0.1588 0.02155 -0.07806 0.1278 -0.0627 0.05643 -0.02197 0.2542
000080 1c 2c 01 34 98 31 ca aa 66 b3 98 34 85 31 32 34
       0.0642 0.2502 0.1748 -0.05304 -0.2312 0.287 0.1725 0.2622
000090 04 b0 f3 33 a7 b2 ed 31 b3 b2 a4 31 91 31 b8 31
       -0.1255 0.2484 -0.2079 0.1852 -0.2094 0.1763 0.174 0.1787
0000a0 e0 2e fd ae a3 2e 37 33 6c 2a 88 2a 50 30 09 b3
       0.1074 -0.1092 0.1037 0.2255 0.05017 0.05103 0.1348 -0.2198
0000b0 a7 33 ca 33 c1 2c 9e ac f5 32 a0 34 f7 30 0b 35
       0.2391 0.2434 0.0743 -0.07214 0.2174 0.289 0.1552 0.3152
0000c0 37 ae d7 30 ea 32 12 1e b0 aa a6 21 a3 33 18 2e
       -0.0971 0.1512 0.2161 0.005928 -0.05225 0.01103 0.2386 0.0952
0000d0 a6 24 c1 aa 60 1a 9b 32 1f ad cd 31 5a a9 10 33
       0.01816 -0.05276 0.003113 0.2064 -0.08 0.1813 -0.0418 0.2207
0000e0 46 32 ac b0 89 b0 ba 30 20 ab 98 31 fc 32 a5 33
       0.196 -0.146 -0.1417 0.1477 -0.05566 0.1748 0.2183 0.2389
0000f0 0d ac 55 2d 6e a5 be ac d3 20 bb 31 24 30 f4 31
       -0.0633 0.0833 -0.02121 -0.0741 0.00942 0.1791 0.1294 0.186
000100 0c 30 84 31 25 30 60 a4 a2 25 db 2d 9d 34 64 af
       0.1265 0.1724 0.1295 -0.01709 0.022 0.0915 0.2883 -0.1155
000110 62 31 e3 99 7d 33 67 33 4c 21 16 b2 ef b1 b4 34
       0.1682 -0.002874 0.234 0.2313 0.010345 -0.1902 -0.1854 0.294
000120 05 a8 9e b1 41 2f 7f 2b 5a 32 a0 24 56 30 0d b5
       -0.0314 -0.1755 0.11334 0.05856 0.1985 0.01807 0.1355 -0.3157
000130 54 b2 cf 30 88 34 4b 21 06 a7 5e b4 d8 b0 db b0
       -0.1978 0.1503 0.2832 0.01034 -0.02744 -0.273 -0.1514 -0.1517
000140 ab 2e 51 b6 1d b0 27 b1 e4 b3 d1 2e 03 a9 67 2c
       0.1042 -0.3948 -0.1285 -0.161 -0.2466 0.1065 -0.03915 0.0688
000150 6b 2b 69 2c 15 33 6c ac 75 35 c4 30 cd 2e 1e b1
       0.05795 0.0689 0.2213 -0.0691 0.341 0.1489 0.10626 -0.1599
000160 07 af 9c b1 71 a9 50 b1 3c b4 cb 34 92 31 df 34
       -0.1098 -0.1753 -0.0425 -0.166 -0.2646 0.2996 0.1741 0.3044
000170 5c 21 fd 33 92 32 e3 b0 d4 2b bf b3 50 b3 8c b3
       0.01047 0.2496 0.2053 -0.1527 0.06116 -0.2421 -0.2285 -0.2358
000180 8f 2f 3a 30 1d 2e f9 2f 53 b2 95 98 35 2d 51 34
       0.1181 0.1321 0.0955 0.1246 -0.1976 -0.002237 0.08136 0.2698
000190 b3 b0 88 b2 15 aa 38 2c 8f 34 f5 34 57 2d a7 32
       -0.1469 -0.2041 -0.04752 0.0659 0.285 0.3098 0.08344 0.2079
0001a0 5e 2a 9f a4 4a b1 8f 27 37 ab 96 29 b8 33 02 2d
       0.04974 -0.01805 -0.1653 0.02953 -0.05637 0.04364 0.2412 0.07825
0001b0 bf ab 4e 30 0d 26 d6 32 af b3 8a a8 fb 2f 10 32
       -0.06052 0.1345 0.02364 0.2136 -0.2401 -0.03546 0.1247 0.1895
0001c0 9f b4 d3 a7 95 30 56 af 1a 2f ec 1a 7a ae 8b 34
       -0.2888 -0.03056 0.1432 -0.1146 0.11096 0.00338 -0.1012 0.284
0001d0 1b 2f ef 30 aa 2a 86 32 9e 27 f9 31 1a 30 d6 a8
       0.111 0.1542 0.05206 0.2039 0.02975 0.1866 0.1282 -0.03778
0001e0 04 33 ce 26 76 ac ff 21 2e b1 ca 30 ae b2 92 a9
       0.2192 0.02658 -0.0697 0.01171 -0.1619 0.1497 -0.2087 -0.04352
0001f0 41 24 e0 2f a8 29 21 2f 27 ad a9 ac 4f 34 33 b0
       0.01662 0.12305 0.0442 0.1114 -0.0805 -0.0728 0.2693 -0.1312

arith.constant1 f2 [128]
000000 02 32 4e 32 41 31 5b 2e 2d 31 af 30 46 31 56 31
       0.1877 0.197 0.1642 0.0993 0.1617 0.1464 0.1648 0.1667
000010 42 31 09 31 bf 30 a3 30 a9 30 31 31 fe 31 a8 30
       0.1643 0.1573 0.1483 0.1449 0.1456 0.1622 0.1873 0.1455
000020 4f 32 9d 31 7a 31 4e 31 61 30 35 31 0a 31 2c 32
       0.1971 0.1754 0.1711 0.1658 0.1368 0.1627 0.1575 0.1929
000030 6b 31 67 30 a7 31 6d 31 23 32 5f 31 7f 30 87 31
       0.1693 0.1376 0.1766 0.1696 0.1918 0.1678 0.1405 0.1727
000040 53 30 24 31 ce 30 5a 31 e7 31 6d 31 7a 30 88 31
       0.1351 0.1606 0.1501 0.1672 0.1844 0.1696 0.1399 0.1729
000050 71 31 92 31 4f 30 d3 31 8c 31 1b 31 5f 31 b0 30
       0.17 0.1741 0.1346 0.182 0.1733 0.1595 0.1678 0.1465
000060 00 31 2f 32 a4 31 ec 31 04 32 ef 30 48 30 0a 32
       0.1562 0.1932 0.1763 0.185 0.188 0.1542 0.1338 0.1887
000070 f3 30 3b 2f cf 30 5c 2e 61 30 b1 31 5d 32 96 31
       0.1547 0.113 0.1503 0.09937 0.1368 0.1779 0.1989 0.1746
000080 87 32 4b 31 f0 30 7f 31 15 31 0c 31 10 30 00 31
       0.204 0.1654 0.1543 0.1718 0.1588 0.1577 0.127 0.1562
000090 a5 31 d6 30 77 31 b9 31 76 30 b1 30 6d 30 7e 30
       0.1764 0.1511 0.1708 0.1788 0.1394 0.1466 0.1383 0.1404
0000a0 7c 31 19 30 c9 32 c6 30 bc 31 78 32 e0 30 48 33
       0.1714 0.128 0.212 0.1492 0.1792 0.2021 0.1523 0.2275
0000b0 c2 2e b7 31 07 32 40 30 d6 30 7d 31 d2 30 c1 31
       0.1056 0.1786 0.1884 0.1328 0.1511 0.1715 0.1506 0.1798
0000c0 c4 30 41 30 83 31 04 31 f2 30 a2 30 48 31 10 32
       0.1489 0.1329 0.1722 0.1567 0.1545 0.1448 0.165 0.1895
0000d0 aa 30 d3 30 95 32 5e 31 68 2f 93 31 bc 32 80 31
       0.1458 0.1508 0.2057 0.1677 0.1157 0.1742 0.2104 0.1719
0000e0 54 30 1c 32 6a 31 90 31 a7 31 a1 31 10 31 42 32
       0.1353 0.1909 0.1692 0.1738 0.1766 0.1759 0.1582 0.1956
0000f0 49 2f 5e 31 a5 31 f1 30 58 31 36 31 8e 31 ed 31
       0.11383 0.1677 0.1764 0.1544 0.167 0.1628 0.1736 0.1852

arith.constant2 f2 [64]
000000 16 2c 13 2c 06 2d bf 29 16 2d 89 2c af 2c 04 2c
       0.06384 0.06366 0.0785 0.0449 0.07947 0.07086 0.0732 0.06274
000010 4f 28 88 2c 7f 2c 69 2c d2 28 15 29 8f 2b 7f 2c
       0.03366 0.0708 0.07025 0.0689 0.03766 0.0397 0.05905 0.07025
000020 fc 2a 15 2b 7e 2c 8c 2c 51 29 88 2c ca 2c 2f 2c
       0.05457 0.05533 0.0702 0.07104 0.04153 0.0708 0.0748 0.06537
000030 fa 29 e8 2b 6a 28 c2 2a 84 a4 5d 2b 73 28 47 29
       0.0467 0.06177 0.0345 0.0528 -0.01764 0.05753 0.03476 0.04123
000040 46 29 7f 2b 61 29 0b 2c 8c 2b 35 2b ff 29 ba a6
       0.0412 0.05856 0.04202 0.0632 0.05896 0.0563 0.04684 -0.02628
000050 d6 2c 89 2b 55 29 9f 2b 14 a2 ac 2c b6 2b d7 2c
       0.07556 0.05887 0.04166 0.05954 -0.01187 0.073 0.06024 0.0756
000060 13 2c 78 28 44 2a 6f 28 47 2c bb a1 01 2c 13 2d
       0.06366 0.0349 0.04895 0.03464 0.06683 -0.01119 0.06256 0.0793
000070 74 29 a9 2c 06 2d d8 2c 0b 2c fe 2a 39 2a 21 2d
       0.0426 0.0728 0.0785 0.0757 0.0632 0.05463 0.0486 0.08014

arith.constant3 f2 [41]
000000 b4 22 45 1d 71 29 6e 29 be 1f c0 17 55 26 04 1d
       0.01309 0.005146 0.0425 0.04242 0.00756 0.001892 0.02473 0.004898
000010 79 9f a6 1d eb a4 7b 16 a4 a0 fc 26 dc 9c 29 24
       -0.007298 0.005516 -0.01921 0.001582 -0.00906 0.02728 -0.004745 0.01625
000020 d7 23 6a 26 9a a2 c7 25 67 a4 76 a0 78 a1 ba a7
       0.01531 0.02505 -0.01289 0.02257 -0.0172 -0.00871 -0.01068 -0.03018
000030 aa 27 49 9e 5f a1 83 a6 07 87 8a 1c 2b a3 ff a3
       0.02994 -0.006138 -0.01049 -0.02544 -0.0001072 0.004433 -0.014 -0.01562
000040 12 a1 3a 99 cf 99 0b a6 7e a7 20 a2 8c a4 b6 a9
       -0.0099 -0.002552 -0.002836 -0.0236 -0.02927 -0.01196 -0.01776 -0.04462
000050 08 a6
       -0.02356

arith.constant4 f2 [64, 128]
000000 72 27 4f 32 7e 28 2f 34 13 2d 36 af 79 a3 7d 2d
       0.02908 0.1971 0.0351 0.2615 0.0793 -0.1127 -0.014595 0.08575
000010 f6 1f 0e b1 ee b3 04 2e 16 b6 82 31 29 2b 0c 28
       0.007774 -0.158 -0.2478 0.094 -0.3804 0.1721 0.05594 0.03162
000020 bf ad 59 30 81 1e d1 ac 2c 31 97 ad 8f 28 c4 2c
       -0.0898 0.1359 0.00635 -0.07526 0.1616 -0.08734 0.0356 0.07446
000030 b8 b0 16 33 8e ad b5 a4 03 34 38 ad 78 ac fa b0
       -0.1475 0.2214 -0.0868 -0.01839 0.2507 -0.08154 -0.0698 -0.1555
000040 98 29 ba 2c 1c 2c 05 b2 3d 35 4c 33 63 2a 6a b1
       0.0437 0.07385 0.0642 -0.1881 0.3274 0.228 0.0499 -0.1692
000050 2b 33 9d ae 54 b1 26 b4 72 2e d2 ac 1b b1 52 35
       0.224 -0.10333 -0.1665 -0.2593 0.1007 -0.0753 -0.1595 0.3325
000060 94 29 3e 2f aa 35 ee b2 8e 35 f5 2f 50 33 e3 b1
       0.04358 0.11316 0.354 -0.2166 0.3472 0.1243 0.2285 -0.184
000070 43 33 64 32 2e 26 ff b2 3c 23 a0 33 63 af 21 a0
       0.2269 0.1997 0.02414 -0.2186 0.01413 0.2383 -0.1154 -0.008064
000080 c9 32 38 b0 1f b4 6b 36 8d 2d c9 30 13 b6 d1 2e
       0.212 -0.1318 -0.2576 0.4011 0.08673 0.1495 -0.3796 0.1065
000090 c9 b1 b9 35 2a ae 08 2e 9b ad cc 32 08 34 a1 a9
       -0.1808 0.3577 -0.0963 0.09424 -0.0876 0.2124 0.252 -0.04398
0000a0 90 33 8d 2e 03 33 9a 34 db 33 36 34 92 b2 33 25
       0.2363 0.10236 0.2191 0.2876 0.2455 0.2632 -0.2053 0.02031
0000b0 2e b4 56 2e 40 34 86 b3 77 b5 be 30 6c 2d 3c 35
       -0.2612 0.099 0.2656 -0.2351 -0.3416 0.1482 0.0847 0.3271
0000c0 fe 35 37 33 30 9d 28 33 07 b3 da 35 77 34 1c 32
       0.3745 0.2255 -0.005066 0.2236 -0.2196 0.3657 0.279 0.1909
0000d0 42 31 9d b4 d7 9f c6 26 2d 8e 83 2c 48 ac 09 35
       0.1643 -0.2883 -0.007656 0.02646 -0.000377 0.0705 -0.0669 0.3147
0000e0 0d af 3e 28 39 b1 1d 31 e2 9f 2d 2f 45 b5 47 a9
       -0.11017 0.03314 -0.1632 0.1598 -0.007698 0.1121 -0.3293 -0.04123
0000f0 a3 ad 55 27 9e 2f ce 34 39 33 2e b4 1e b0 2a 2a
       -0.0881 0.02864 0.119 0.3003 0.2257 -0.2612 -0.1287 0.04816
000100 7a 30 4d 2f 37 a6 49 2e 90 2b 5e 31 aa 2d 48 34
       0.1399 0.1141 -0.02428 0.0982 0.05908 0.1677 0.0885 0.2676
000110 39 33 25 36 47 30 74 34 67 2b 90 af 3c 31 05 36
       0.2257 0.384 0.1337 0.2783 0.05783 -0.11816 0.1636 0.3762
000120 15 b2 50 b0 1f 32 22 34 08 b1 00 aa 65 2e 8e ad
       -0.1901 -0.1348 0.1913 0.2583 -0.1572 -0.04688 0.0999 -0.0868
000130 42 30 5a b1 cd 32 24 32 25 b1 c0 b0 05 a6 fb 2f
       0.133 -0.1672 0.2125 0.1919 -0.1608 -0.1484 -0.02351 0.1247
000140 5f b1 7f 21 a3 b5 d6 a8 a3 32 b2 b0 e7 ad 1c 34
       -0.1678 0.010735 -0.3523 -0.03778 0.2074 -0.1467 -0.0922 0.2568
000150 3b b3 76 a5 15 31 10 28 13 2d f8 31 3b 2c 67 32
       -0.226 -0.02133 0.1588 0.03174 0.0793 0.1865 0.0661 0.2001
000160 9e 2c eb b4 eb af af 30 f9 b0 2f ad 4a 2c c2 27
       0.07214 -0.3074 -0.1237 0.1464 -0.1554 -0.081 0.067 0.0303
000170 f5 b3 df b1 92 31 a3 32 79 af 8e 33 09 29 21 31
       -0.2487 -0.1835 0.1741 0.2074 -0.11676 0.2361 0.03934 0.1603
000180 8c b0 a0 b0 24 2e 29 2c 2f b0 3a 32 f9 34 de 32
       -0.1421 -0.1445 0.09595 0.065 -0.1307 0.1946 0.3108 0.2146
000190 ee ac 4c 22 e1 b0 42 30 fe b2 d5 b1 5d 35 5b ac
       -0.077 0.0123 -0.1525 0.133 -0.2185 -0.1823 0.3352 -0.06805
0001a0 c0 b4 5a b0 9c 33 b4 34 07 b3 50 a6 48 35 46 b3
       -0.2969 -0.136 0.2378 0.294 -0.2196 -0.02466 0.33 -0.2273
0001b0 69 b0 c6 b0 52 33 84 35 a7 30 b3 31 b2 b2 3c 35
       -0.1378 -0.1492 0.2288 0.3447 0.1454 0.1781 -0.2092 0.3271
0001c0 4a 32 c0 2c 52 2e 8c 31 b1 b1 5a ac b6 32 b4 34
       0.1965 0.0742 0.09875 0.1733 -0.1779 -0.068 0.2097 0.294
0001d0 a2 af 8d 1e 61 b0 18 b5 66 aa db b1 f4 ac d1 30
       -0.11926 0.006397 -0.1368 -0.3184 -0.05 -0.183 -0.0774 0.1505
0001e0 38 2c a3 26 e5 aa 66 33 91 ad c3 2e 1b 35 85 30
       0.0659 0.02592 -0.05386 0.2312 -0.087 0.10565 0.319 0.1412
0001f0 d2 ae 0b 36 62 a1 21 2d 14 2f 4b 35 8c 1b 42 35
       -0.10657 0.3777 -0.01051 0.08014 0.1106 0.3308 0.003685 0.3286

arith.constant5 f2 [41, 64]
000000 72 a6 96 29 86 b2 93 aa e4 34 f7 b2 f4 33 42 ae
       -0.02518 0.04364 -0.2039 -0.05136 0.3057 -0.2177 0.2485 -0.0978
000010 0c ae cc 32 e2 b2 a3 30 bb 31 af b7 71 b1 16 b5
       -0.0945 0.2124 -0.2151 0.1449 0.1791 -0.4802 -0.17 -0.3179
000020 93 32 43 b8 80 31 7d 34 85 32 24 25 a5 ae 0b b7
       0.2054 -0.5327 0.1719 0.2805 0.2037 0.02008 -0.1038 -0.4402
000030 df 1c 04 33 48 ac ce ae e1 af 2b 33 07 b4 34 b6
       0.004757 0.2192 -0.0669 -0.1063 -0.1231 0.224 -0.2517 -0.3877
000040 4c 32 24 33 d9 b7 eb b5 a1 26 03 b2 00 b2 7a 2d
       0.1968 0.2231 -0.4905 -0.3699 0.0259 -0.1879 -0.1875 0.0856
000050 01 27 3f b6 60 b5 5d b1 b0 ab 9d 2e e3 b2 0e 34
       0.02736 -0.3904 -0.336 -0.1676 -0.06006 0.10333 -0.2152 0.2534
000060 fb 2d 75 32 3e b7 e6 2c fa b5 b2 31 a1 b8 c5 2f
       0.09344 0.2018 -0.4526 0.07654 -0.3735 0.178 -0.5786 0.1214
000070 5c af 30 2d fc b4 2e 2c ce 32 d8 b0 37 2d 19 b5
       -0.115 0.08105 -0.3115 0.0653 0.2126 -0.1514 0.0815 -0.3186
000080 fc b4 11 29 06 34 ce ad 05 b4 12 31 a0 1c 29 32
       -0.3115 0.03958 0.2515 -0.0907 -0.2512 0.1584 0.004517 0.1925
000090 0b a0 99 34 ea b4 a4 32 f0 b6 bc a4 e3 b7 c0 33
       -0.0079 0.2874 -0.3071 0.2075 -0.4336 -0.0185 -0.493 0.2422
0000a0 4b b7 82 32 dd 32 e3 ae ae ae 34 2a da 31 d9 2c
       -0.4558 0.2034 0.2145 -0.1076 -0.1044 0.04846 0.1829 0.07574
0000b0 57 b7 6d b1 91 a6 87 b4 35 9f 17 2c ce b6 05 b4
       -0.4587 -0.1696 -0.02565 -0.283 -0.00704 0.0639 -0.4253 -0.2512
0000c0 32 2f fd 35 e8 34 0a 33 be b3 6b b5 77 32 ce 32
       0.1124 0.3743 0.3066 0.22 -0.242 -0.3386 0.202 0.2126
0000d0 a7 32 3e b6 54 a9 13 ac c5 23 9e b2 a3 a8 6e b5
       0.2079 -0.3901 -0.04163 -0.06366 0.015175 -0.2068 -0.03622 -0.3394
0000e0 52 b7 49 35 01 b5 26 b6 9d b6 3d b3 06 a2 8a b0
       -0.4575 0.3303 -0.3127 -0.3843 -0.4133 -0.2262 -0.011765 -0.1418
0000f0 60 ad 3d 2e fd b6 81 32 63 b7 28 ac 7c b3 30 b8
       -0.084 0.0975 -0.4368 0.2032 -0.4617 -0.06494 -0.2339 -0.5234
000100 6a b4 3e 34 17 b6 1e 2f f5 35 7a b7 77 af b1 b0
       -0.276 0.2651 -0.3806 0.1112 0.3723 -0.4673 -0.11664 -0.1466
000110 0d ac 35 34 b0 ae bb b5 7d b8 fe b4 04 35 5a 28
       -0.0633 0.263 -0.1045 -0.3582 -0.561 -0.312 0.3135 0.034
000120 36 32 46 31 99 b6 86 2e 66 34 2b a9 66 34 18 35
       0.1941 0.1648 -0.4124 0.1019 0.275 -0.04037 0.275 0.3184
000130 66 2a f2 30 24 b0 e3 aa b1 b2 93 ac 46 b8 18 26
       0.05 0.1545 -0.1294 -0.0538 -0.2091 -0.0715 -0.534 0.0238
000140 f2 b7 d1 b3 02 9d 1e b0 46 34 82 2b 82 2e 21 b1
       -0.4966 -0.2443 -0.00489 -0.1287 0.267 0.05865 0.1017 -0.1603
000150 a9 a9 c2 b7 f9 b4 84 b6 e4 30 87 b7 f4 2e dd 28
       -0.04422 -0.4849 -0.3108 -0.4072 0.1528 -0.4705 0.10864 0.038
000160 0f a9 8b a8 ab 9e 13 aa 86 b5 48 b0 5b b7 39 2c
       -0.03952 -0.0355 -0.00651 -0.04745 -0.3452 -0.1338 -0.4597 0.066
000170 f3 b0 69 25 4a b5 b9 33 63 b7 84 28 17 b8 cb 34
       -0.1547 0.02113 -0.3306 0.2413 -0.4617 0.03528 -0.511 0.2996
000180 49 34 d5 b7 83 b5 ec b2 c2 a5 af 35 02 ad 0b 31
       0.2678 -0.4895 -0.3445 -0.2163 -0.02249 0.3552 -0.07825 0.1576
000190 0d b5 87 2e 94 b5 60 30 f0 34 e8 33 5c 34 a9 aa
       -0.3157 0.102 -0.3486 0.1367 0.3086 0.2471 0.2725 -0.05203
0001a0 6e b6 19 b6 2a 2b a1 31 b6 b2 87 32 b9 b0 0b 35
       -0.4019 -0.381 0.05597 0.1759 -0.2097 0.204 -0.1476 0.3152
0001b0 71 b7 46 28 20 2f 6b ab b0 30 05 30 18 b5 c4 b7
       -0.465 0.0334 0.1113 -0.05795 0.1465 0.1256 -0.3184 -0.4854
0001c0 24 b2 89 b7 9e 2e e6 b5 13 b7 12 30 15 b8 54 2f
       -0.1919 -0.471 0.1034 -0.3687 -0.4421 0.1272 -0.5103 0.1145
0001d0 2e 33 d2 2e 89 04 2f 30 96 ac 32 30 81 b4 45 35
       0.2244 0.10657 6.92e-05 0.1307 -0.07166 0.1311 -0.2815 0.3293
0001e0 7c b8 2f af fd af e7 a8 95 30 81 31 eb 24 46 b7
       -0.5605 -0.11224 -0.1248 -0.0383 0.1432 0.172 0.01921 -0.4546
0001f0 29 28 d1 b5 48 b8 70 34 8b b2 77 b5 24 b2 c1 b1
       0.0325 -0.3635 -0.535 0.2773 -0.2045 -0.3416 -0.1919 -0.1798
